model/keypoint_classifier/keypoint_classifier.tflite (tflite, 30672 bytes, 10 tensors)

arith.constant f4 [64]
0	0xbd4de5ac	-0.05026786
1	0xbea91fb2	-0.33031994
2	0xbdb58e43	-0.08865025
3	0x3afb8ec2	0.0019192325
4	0xbd8d0411	-0.06885541
5	0xbe2d09b4	-0.16898233
6	0x3d62f4a9	0.055409107
7	0xbe5c29dd	-0.21500345
8	0xbe085eb1	-0.13317372
9	0xbd157604	-0.0364895
10	0xbd4a56bb	-0.04939912
11	0xbddb4fb6	-0.10708563
12	0xbe0555b6	-0.13020977
13	0xbe74b297	-0.23896252
14	0xbde5c299	-0.11218757
15	0xbe000f36	-0.12505803
16	0xbcb147c4	-0.021640666
17	0x3d2c898a	0.042123355
18	0x3c08c10b	0.008346806
19	0xbe80bf60	-0.25146008
20	0x3c3ed777	0.0116480505
21	0xbdfca0b7	-0.123353414
22	0xbd5e42e2	-0.054263003
23	0x3e2a709a	0.16644517
24	0xbe85a0cb	-0.26099238
25	0xbcb21559	-0.021738695
26	0xbd8fd9ed	-0.07023988
27	0xbe1b468f	-0.15163635
28	0xbe193220	-0.14960527
29	0xbe0dd3ea	-0.1385037
30	0xbd6041a1	-0.05475009
31	0x3c2c3931	0.010511682
32	0xbd62aa59	-0.055338237
33	0xbd488f55	-0.048964817
34	0x3d3f24e1	0.04666603
35	0xbe01bc83	-0.12669568
36	0xbe113cbe	-0.14183328
37	0xbdac4f16	-0.08413522
38	0xbe3de7ab	-0.18545406
39	0xbd8415c3	-0.06449463
40	0x3c31973d	0.010839281
41	0xbe04f210	-0.12982965
42	0xbb9b992d	-0.0047484846
43	0xbd43c210	-0.047792494
44	0xbe779f3c	-0.24181837
45	0xbe04a98b	-0.129553
46	0x3cc42eef	0.023948161
47	0xbe1be0f8	-0.15222538
48	0xbdadc36e	-0.08484541
49	0xbd0c069d	-0.034185994
50	0x3b5363f1	0.0032255615
51	0xbe1f5f1d	-0.15563627
52	0xbd5b07d5	-0.053474266
53	0xbe316022	-0.17321828
54	0xbe045a2b	-0.12925021
55	0xbc93628f	-0.017991332
56	0x3a459391	0.0007536943
57	0x3cb63324	0.022241183
58	0xbd34e4cd	-0.044163514
59	0xbd9125c4	-0.07087281
60	0xbdd5b2c9	-0.10434491
61	0xbd599c00	-0.05312729
62	0xbdc91139	-0.09817738
63	0xbe8eb99e	-0.2787599

arith.constant1 f4 [128]
0	0xbe614b50	-0.22001386
1	0x3f019e17	0.5063185
2	0x3f75dcc9	0.96040016
3	0x3f1a4844	0.6026652
4	0xbc1d83a0	-0.009613901
5	0x3ef42cfa	0.47690564
6	0x3f1a0ae3	0.6017286
7	0xbf026d3e	-0.5094794
8	0x3e9e2697	0.30888817
9	0x3fb336e9	1.4001132
10	0x3f622831	0.8834258
11	0x3f94b68f	1.1618212
12	0x3f3d4042	0.73926175
13	0x3f4cb60c	0.7996528
14	0xbed55285	-0.4166452
15	0x3f917be5	1.1365935
16	0xbd208d2b	-0.03919713
17	0xbf989f45	-1.1923605
18	0xbe8f4521	-0.2798243
19	0x3d884d11	0.06655324
20	0x3f9f2d3f	1.2435683
21	0x3f72ee08	0.94894457
22	0x3f306a2f	0.68912023
23	0x3f4a913d	0.79127866
24	0xbfdce861	-1.7258416
25	0x3fc25350	1.5181675
26	0x3f0fdc61	0.56195647
27	0xbfc5d883	-1.5456699
28	0x3ef929de	0.48664755
29	0xbd5b9498	-0.053608507
30	0xbe9d8401	-0.30764773
31	0xbfee50d3	-1.8618416
32	0xbed946cb	-0.42436823
33	0xbf0f2616	-0.5591749
34	0x3e2fd0c6	0.17169484
35	0xc0310b32	-2.7663083
36	0x3e2d4d01	0.16923906
37	0x3fa058b2	1.2527068
38	0x3fab3b09	1.3377391
39	0xbcc64d7f	-0.024206875
40	0xbe613d88	-0.21996129
41	0x3eaf3cb4	0.34226
42	0x3e3cee27	0.18450223
43	0xbe90d998	-0.2829101
44	0xbb8435bb	-0.0040347255
45	0x3fb5f4f2	1.4215376
46	0x3e9c9f02	0.30590063
47	0xbf390902	-0.7227937
48	0xbfdc5f1b	-1.7216524
49	0xbe3fbf2f	-0.18725275
50	0xbfe3148a	-1.7740643
51	0x3f1379be	0.5760764
52	0xbfc8861b	-1.5665926
53	0x3f07d561	0.53059965
54	0xbde7ee9a	-0.113248065
55	0x3e5bc808	0.21463025
56	0xbf4d025f	-0.80081743
57	0xbeb4d490	-0.35318422
58	0x3fb0e18c	1.3818831
59	0xbfbe5ae3	-1.4871486
60	0xbdc92107	-0.098207526
61	0xbf9f46fa	-1.2443535
62	0x3e824aa2	0.25447565
63	0xbfad1faa	-1.3525288
64	0x3eb579c7	0.3544447
65	0x401052be	2.2550502
66	0x3ef80bc1	0.48446468
67	0xbeae9c6f	-0.34103724
68	0xbe8714a6	-0.2638294
69	0x3e78508d	0.24249478
70	0xbe605e33	-0.21910934
71	0x3e8a8435	0.2705399
72	0xbeddf664	-0.43352044
73	0xbe9afd95	-0.30271593
74	0x3ecbde5a	0.39818078
75	0xbe96e01a	-0.2946785
76	0xbdc31376	-0.09525196
77	0x3d274885	0.040840644
78	0x3f35493d	0.7081488
79	0xbe6aeb37	-0.2294129
80	0xbfa4bf4b	-1.2870878
81	0xbf393df6	-0.7236017
82	0x3ef45792	0.4772306
83	0x3f75e608	0.96054125
84	0x3e99edfe	0.30064386
85	0xbdac6072	-0.08416833
86	0xbdcdf1fd	-0.10055921
87	0xbfd234c5	-1.6422354
88	0x3f10ecb1	0.5661116
89	0xbfa1f6ac	-1.2653403
90	0x3ff8b333	1.9429687
91	0x3f822f8a	1.0170758
92	0x3e0ce0e9	0.13757671
93	0x3fad730b	1.3550733
94	0x3e5d7b88	0.21629155
95	0xbf6a7a88	-0.9159322
96	0xbf335285	-0.7004779
97	0xbf33dcd5	-0.7025884
98	0xbdec1eec	-0.115293354
99	0x3ee1e43b	0.4411944
100	0xbebbbc28	-0.3666699
101	0x3f31db3a	0.6947514
102	0x3f714261	0.9424191
103	0x3f2ef6d7	0.683454
104	0x3f95346e	1.1656625
105	0x3e05eef5	0.13079436
106	0x3f753e7a	0.95798457
107	0xbf7ee2bb	-0.99564713
108	0x3f8b4a1b	1.088199
109	0xbe863cb0	-0.26218176
110	0xbd44f64b	-0.048086446
111	0x3f83735a	1.0269578
112	0x3f16f41f	0.5896625
113	0xbfa8d6d3	-1.3190559
114	0xbe0abe64	-0.13549191
115	0xbe296a16	-0.16544375
116	0x3f6c6bc3	0.9235193
117	0xbe5299d7	-0.20566498
118	0xbc44eabf	-0.012018858
119	0x3f6ae541	0.91756064
120	0xbf4c5359	-0.7981468
121	0x3ebb3dc3	0.36570558
122	0x3ea1dd96	0.3161437
123	0x3e9e6dee	0.30943245
124	0xbefddf04	-0.4958421
125	0x3fa3312c	1.2749381
126	0xbf25b131	-0.647235
127	0x3f63f601	0.8904725

arith.constant2 f4 [64]
0	0x3fba95f3	1.4577011
1	0x3fc988c4	1.5744863
2	0x3fd02555	1.6261393
3	0x402792a5	2.6183255
4	0x4009c923	2.1529014
5	0x3f9b05a0	1.2111092
6	0x3fa2780d	1.2692887
7	0x3fb9c4f0	1.4513226
8	0x3fe113e3	1.7584194
9	0x3f1850a7	0.59498066
10	0x3f1f39fa	0.6219784
11	0x3fe0e214	1.7568994
12	0x3fb4a7ea	1.4113743
13	0x3fbf041b	1.4923128
14	0x3f9d79ba	1.2302773
15	0x3e9ff527	0.31241724
16	0x3f891f11	1.0712606
17	0x403df42c	2.968028
18	0x3fffe025	1.9990278
19	0x3f2ce5a4	0.67537904
20	0x3f225ede	0.63426006
21	0x3d986c00	0.07442474
22	0x3fbe3540	1.4860001
23	0x3e026b72	0.127363
24	0x3f9dd408	1.2330332
25	0xbeb9cbe0	-0.36288357
26	0x3f227f19	0.63475186
27	0x3fc9eee1	1.5776025
28	0x400a57ae	2.1616015
29	0xbf55e18d	-0.8354729
30	0x4002db2e	2.0446277
31	0x3fa04c56	1.2523296
32	0x3fedcd31	1.8578244
33	0x3ff6dbc5	1.9285818
34	0x3fb15ed8	1.3857069
35	0x3f45cf47	0.77269405
36	0x405135f2	3.2689176
37	0x3fe312af	1.7740077
38	0x3f9d539d	1.2291142
39	0x3f0a09da	0.5392128
40	0x400cd980	2.2007751
41	0x4001db86	2.0290236
42	0x3f317a84	0.6932757
43	0x3e96530a	0.2936023
44	0x3f39eac5	0.72623855
45	0x3f472f16	0.7780622
46	0x3fdd895c	1.7307544
47	0x3e27bce7	0.16380654
48	0xbf639b41	-0.88908774
49	0x3ff7f1fc	1.9370723
50	0x3f869c10	1.0516376
51	0x3f7aad11	0.9792033
52	0x3fca5274	1.5806413
53	0x3fcf2a1c	1.6184726
54	0x3f05647b	0.52106446
55	0x3f489adb	0.7836129
56	0x3f3daabe	0.74088657
57	0x3f530f4e	0.8244523
58	0x3f2a9012	0.66626084
59	0x3fee110c	1.8598952
60	0x3ffb761a	1.9645417
61	0xbe92f9d9	-0.28706244
62	0x3fd8a432	1.6925108
63	0x3f377542	0.71663296

arith.constant3 f4 [32]
0	0x3f52e57f	0.82381433
1	0x400d7533	2.2102783
2	0x3fe4ff69	1.7890445
3	0x3f6be6e1	0.9214917
4	0x40319844	2.7749186
5	0x3f31c334	0.6943848
6	0x3f90ac1d	1.1302525
7	0x40150950	2.3286934
8	0x3fe2918b	1.7700666
9	0x4006bda7	2.1053255
10	0x3fb73e83	1.4315952
11	0x4003e782	2.061005
12	0x3f895f33	1.0732177
13	0x3f86e627	1.0538987
14	0x3f53fe15	0.82809573
15	0x3fec189f	1.8445014
16	0x4014193c	2.3140402
17	0x3fdf08e7	1.7424592
18	0x3f80fcc4	1.0077138
19	0x3fea2d84	1.829514
20	0x3fa9fa28	1.3279467
21	0x3f343e30	0.7040739
22	0x3f99d259	1.2017318
23	0x3fcc89ac	1.5979514
24	0x3f60e87f	0.8785476
25	0x3fd5c9a1	1.6702157
26	0x3fcae480	1.5850983
27	0x400a64ea	2.1624093
28	0x3ff5cd62	1.9203303
29	0x401711b0	2.3604546
30	0x400dd3ff	2.2160642
31	0x3fd25a46	1.6433799

arith.constant4 f4 [32]
0	0x40b9a3ca	5.801244
1	0x40ab825e	5.359664
2	0x40d63b10	6.69471
3	0x3fa82909	1.3137523
4	0xbfdcff00	-1.726532
5	0x407b8ae8	3.9303532
6	0xc006733e	-2.1007838
7	0x3fbd5881	1.4792634
8	0x40a9947c	5.2993755
9	0x41007d54	8.030598
10	0x4005d700	2.0912476
11	0x3f69cecc	0.9133117
12	0x40264dbf	2.5984952
13	0xbf864292	-1.0489066
14	0xc0a116f1	-5.0340505
15	0x4051be6f	3.2772481
16	0xbf3f696c	-0.74770236
17	0x406e0dc4	3.7195902
18	0x3ffcb607	1.974305
19	0x3fa42354	1.2823281
20	0x40838f8f	4.1112742
21	0x40e9e367	7.309009
22	0x408d3ebf	4.4139094
23	0xbfa23e9a	-1.2675354
24	0x40729a46	3.790666
25	0x40103cdc	2.2537146
26	0x4038b4a5	2.8860257
27	0x3fa86149	1.3154689
28	0x40838106	4.1095
29	0xc0087de6	-2.1326842
30	0xc02d9187	-2.7120073
31	0xbe87c2db	-0.2651585

tfl.pseudo_qconst i1 [32, 32]
0	0xab	-85
1	0xa3	-93
2	0xb2	-78
3	0x0b	11
4	0xe2	-30
5	0x7f	127
6	0xdf	-33
7	0xbc	-68
8	0xd6	-42
9	0x71	113
10	0x03	3
11	0xcd	-51
12	0x97	-105
13	0xbf	-65
14	0x58	88
15	0xd5	-43
16	0xe8	-24
17	0xab	-85
18	0xc2	-62
19	0xa6	-90
20	0x38	56
21	0x89	-119
22	0x2b	43
23	0xaf	-81
24	0x09	9
25	0xc0	-64
26	0xf1	-15
27	0x61	97
28	0xb7	-73
29	0x52	82
30	0xb7	-73
31	0xa9	-87
32	0x6d	109
33	0xef	-17
34	0xdd	-35
35	0xeb	-21
36	0x45	69
37	0xd4	-44
38	0xe0	-32
39	0xb5	-75
40	0xbf	-65
41	0xad	-83
42	0x8c	-116
43	0x5f	95
44	0x92	-110
45	0xbd	-67
46	0xd1	-47
47	0x67	103
48	0xd3	-45
49	0xd8	-40
50	0x9c	-100
51	0xb2	-78
52	0x81	-127
53	0x61	97
54	0x05	5
55	0x46	70
56	0xae	-82
57	0xc7	-57
58	0x12	18
59	0xd2	-46
60	0xcb	-53
61	0x70	112
62	0xb2	-78
63	0xd3	-45
64	0xf8	-8
65	0xf2	-14
66	0x7f	127
67	0x1a	26
68	0xb9	-71
69	0x67	103
70	0x8a	-118
71	0xae	-82
72	0xab	-85
73	0xca	-54
74	0xac	-84
75	0x0e	14
76	0xb1	-79
77	0xdb	-37
78	0xbe	-66
79	0xb5	-75
80	0xc0	-64
81	0xba	-70
82	0x61	97
83	0xe3	-29
84	0x65	101
85	0x65	101
86	0xd5	-43
87	0xb9	-71
88	0xc1	-63
89	0xd0	-48
90	0xd4	-44
91	0xb8	-72
92	0xef	-17
93	0xa3	-93
94	0xb8	-72
95	0xd4	-44
96	0x68	104
97	0xc8	-56
98	0x69	105
99	0x5d	93
100	0xc2	-62
101	0x81	-127
102	0xbe	-66
103	0xa9	-87
104	0x58	88
105	0x06	6
106	0xdc	-36
107	0xd1	-47
108	0x4c	76
109	0xed	-19
110	0xc6	-58
111	0x77	119
112	0xc2	-62
113	0xb9	-71
114	0x66	102
115	0xc7	-57
116	0x71	113
117	0xe2	-30
118	0x29	41
119	0xfe	-2
120	0xd0	-48
121	0xc3	-61
122	0x43	67
123	0xd4	-44
124	0xd5	-43
125	0xd8	-40
126	0xbd	-67
127	0xc0	-64
128	0xef	-17
129	0x2e	46
130	0x2a	42
131	0xaa	-86
132	0x9a	-102
133	0x3e	62
134	0x97	-105
135	0x32	50
136	0x4d	77
137	0x04	4
138	0xda	-38
139	0x69	105
140	0x4c	76
141	0x0e	14
142	0xdf	-33
143	0x49	73
144	0x47	71
145	0x29	41
146	0x5f	95
147	0xab	-85
148	0x5a	90
149	0x08	8
150	0x4a	74
151	0x3b	59
152	0x51	81
153	0x91	-111
154	0xa2	-94
155	0xbe	-66
156	0x7f	127
157	0xb2	-78
158	0xc8	-56
159	0xc6	-58
160	0x7f	127
161	0x46	70
162	0xc1	-63
163	0x7f	127
164	0xac	-84
165	0xe2	-30
166	0xac	-84
167	0xaa	-86
168	0xcd	-51
169	0x5d	93
170	0xc3	-61
171	0xbc	-68
172	0x62	98
173	0xb8	-72
174	0x57	87
175	0xe1	-31
176	0xcc	-52
177	0xe7	-25
178	0xf9	-7
179	0xb2	-78
180	0x90	-112
181	0xa7	-89
182	0x75	117
183	0xb6	-74
184	0xc9	-55
185	0xb6	-74
186	0x86	-122
187	0xa0	-96
188	0x19	25
189	0xa9	-87
190	0xc5	-59
191	0x6f	111
192	0xdd	-35
193	0xd0	-48
194	0xa5	-91
195	0xb5	-75
196	0x58	88
197	0xae	-82
198	0x64	100
199	0x0a	10
200	0x69	105
201	0xdb	-37
202	0x5d	93
203	0x47	71
204	0x81	-127
205	0xd3	-45
206	0x9f	-97
207	0x68	104
208	0xd5	-43
209	0x69	105
210	0xef	-17
211	0xf4	-12
212	0xef	-17
213	0xdf	-33
214	0x2c	44
215	0xc2	-62
216	0x67	103
217	0x37	55
218	0x3b	59
219	0x5c	92
220	0x76	118
221	0xc4	-60
222	0x0d	13
223	0xf2	-14
224	0xb6	-74
225	0xba	-70
226	0x4e	78
227	0x56	86
228	0x85	-123
229	0xd1	-47
230	0x0e	14
231	0x60	96
232	0x68	104
233	0x12	18
234	0x6b	107
235	0xa7	-89
236	0x32	50
237	0xac	-84
238	0xcc	-52
239	0x97	-105
240	0x03	3
241	0x6f	111
242	0x72	114
243	0xba	-70
244	0xab	-85
245	0xfb	-5
246	0x04	4
247	0xee	-18
248	0xef	-17
249	0x35	53
250	0xcd	-51
251	0xc7	-57
252	0x81	-127
253	0x1e	30
254	0xb5	-75
255	0xd3	-45

tfl.pseudo_qconst1 i1 [32, 64]
0	0xe5	-27
1	0x11	17
2	0x4e	78
3	0xdc	-36
4	0x05	5
5	0xe1	-31
6	0xff	-1
7	0xbc	-68
8	0xf4	-12
9	0xdd	-35
10	0x36	54
11	0x05	5
12	0xa1	-95
13	0x0b	11
14	0x27	39
15	0xab	-85
16	0x49	73
17	0xb3	-77
18	0xef	-17
19	0xd8	-40
20	0xcd	-51
21	0x8d	-115
22	0xf8	-8
23	0xf5	-11
24	0xf8	-8
25	0xa4	-92
26	0x15	21
27	0xc2	-62
28	0x05	5
29	0xe2	-30
30	0xd9	-39
31	0x28	40
32	0xf4	-12
33	0xd8	-40
34	0x11	17
35	0x60	96
36	0x1e	30
37	0x2a	42
38	0x89	-119
39	0xc8	-56
40	0x65	101
41	0x81	-127
42	0x24	36
43	0x20	32
44	0x23	35
45	0x1f	31
46	0x25	37
47	0xda	-38
48	0x11	17
49	0xb4	-76
50	0x1d	29
51	0x17	23
52	0xf2	-14
53	0x15	21
54	0x07	7
55	0x23	35
56	0x00	0
57	0xf2	-14
58	0x39	57
59	0x18	24
60	0x3c	60
61	0x06	6
62	0x3c	60
63	0x0b	11
64	0x9f	-97
65	0xbb	-69
66	0x0e	14
67	0xeb	-21
68	0xc8	-56
69	0x01	1
70	0xc5	-59
71	0x8a	-118
72	0x33	51
73	0x04	4
74	0x93	-109
75	0xe6	-26
76	0xad	-83
77	0xa1	-95
78	0xc6	-58
79	0xcc	-52
80	0xd4	-44
81	0x2b	43
82	0x2c	44
83	0x02	2
84	0xd0	-48
85	0x3f	63
86	0xea	-22
87	0x26	38
88	0xc1	-63
89	0xfc	-4
90	0x1d	29
91	0xc3	-61
92	0xf3	-13
93	0x0c	12
94	0x11	17
95	0xdf	-33
96	0x81	-127
97	0x00	0
98	0x33	51
99	0x04	4
100	0x06	6
101	0x44	68
102	0xfe	-2
103	0xe8	-24
104	0xe3	-29
105	0x2d	45
106	0x41	65
107	0xd6	-42
108	0xf7	-9
109	0x3c	60
110	0xfc	-4
111	0xf6	-10
112	0x0d	13
113	0xed	-19
114	0xab	-85
115	0x11	17
116	0x16	22
117	0x0b	11
118	0x21	33
119	0x17	23
120	0x01	1
121	0xb8	-72
122	0xfe	-2
123	0xe8	-24
124	0xf5	-11
125	0x19	25
126	0xaf	-81
127	0xf1	-15
128	0xaa	-86
129	0x16	22
130	0x29	41
131	0x02	2
132	0xd4	-44
133	0xff	-1
134	0xed	-19
135	0x0d	13
136	0xe7	-25
137	0xff	-1
138	0x29	41
139	0xf9	-7
140	0xf3	-13
141	0xf4	-12
142	0xd6	-42
143	0x20	32
144	0xa9	-87
145	0x03	3
146	0xa6	-90
147	0x0f	15
148	0xe8	-24
149	0xd5	-43
150	0xc0	-64
151	0x00	0
152	0x29	41
153	0x42	66
154	0xe7	-25
155	0xa1	-95
156	0x18	24
157	0x19	25
158	0x0b	11
159	0xd5	-43
160	0x9d	-99
161	0x25	37
162	0xaa	-86
163	0xf7	-9
164	0xcc	-52
165	0x06	6
166	0xee	-18
167	0x11	17
168	0x1f	31
169	0xfe	-2
170	0x1e	30
171	0xda	-38
172	0x15	21
173	0x21	33
174	0x29	41
175	0x7f	127
176	0x09	9
177	0xaf	-81
178	0xf4	-12
179	0x37	55
180	0xe2	-30
181	0x1c	28
182	0xda	-38
183	0xf5	-11
184	0xff	-1
185	0x38	56
186	0xe1	-31
187	0xf4	-12
188	0x10	16
189	0xc4	-60
190	0xb4	-76
191	0xe8	-24
192	0xff	-1
193	0x20	32
194	0x24	36
195	0x41	65
196	0x0a	10
197	0xdf	-33
198	0x28	40
199	0xe9	-23
200	0x15	21
201	0xec	-20
202	0xe6	-26
203	0xf5	-11
204	0x34	52
205	0x0e	14
206	0x3b	59
207	0xdd	-35
208	0x13	19
209	0x51	81
210	0xf3	-13
211	0xcc	-52
212	0x2c	44
213	0x81	-127
214	0x98	-104
215	0xfc	-4
216	0xda	-38
217	0xb8	-72
218	0xa5	-91
219	0xf4	-12
220	0xe0	-32
221	0xe4	-28
222	0x4d	77
223	0xea	-22
224	0xb9	-71
225	0xdb	-37
226	0xf2	-14
227	0x2d	45
228	0x05	5
229	0xfe	-2
230	0xfa	-6
231	0xce	-50
232	0x46	70
233	0xe6	-26
234	0x01	1
235	0x3c	60
236	0xca	-54
237	0x23	35
238	0x07	7
239	0xf5	-11
240	0xf6	-10
241	0xcd	-51
242	0x05	5
243	0x3d	61
244	0x14	20
245	0x35	53
246	0x11	17
247	0xfa	-6
248	0xa7	-89
249	0x1f	31
250	0xda	-38
251	0x20	32
252	0x66	102
253	0x1e	30
254	0xd5	-43
255	0xe4	-28

tfl.pseudo_qconst2 i1 [64, 128]
0	0xf3	-13
1	0x1c	28
2	0x2e	46
3	0xdb	-37
4	0xfa	-6
5	0x04	4
6	0x1b	27
7	0xe1	-31
8	0x00	0
9	0x24	36
10	0xf6	-10
11	0xee	-18
12	0xef	-17
13	0x0e	14
14	0xc8	-56
15	0xe2	-30
16	0xee	-18
17	0xe4	-28
18	0x12	18
19	0x09	9
20	0xee	-18
21	0xcf	-49
22	0xf8	-8
23	0xf0	-16
24	0xea	-22
25	0xce	-50
26	0x2f	47
27	0xfb	-5
28	0xc3	-61
29	0xc5	-59
30	0x08	8
31	0xbe	-66
32	0x16	22
33	0xf7	-9
34	0x10	16
35	0xd3	-45
36	0x06	6
37	0x0a	10
38	0xef	-17
39	0xea	-22
40	0xc6	-58
41	0x02	2
42	0xfb	-5
43	0xd8	-40
44	0x26	38
45	0x0d	13
46	0x0d	13
47	0xa6	-90
48	0xfb	-5
49	0x10	16
50	0xdc	-36
51	0xe4	-28
52	0xf5	-11
53	0x34	52
54	0xf8	-8
55	0x0c	12
56	0xe2	-30
57	0x1c	28
58	0xfa	-6
59	0xfb	-5
60	0x0f	15
61	0xbe	-66
62	0x2d	45
63	0xe9	-23
64	0x2c	44
65	0xf6	-10
66	0x22	34
67	0xe1	-31
68	0xe6	-26
69	0x1e	30
70	0xda	-38
71	0xeb	-21
72	0x18	24
73	0xf2	-14
74	0xeb	-21
75	0xfd	-3
76	0x0b	11
77	0x0e	14
78	0xda	-38
79	0xf6	-10
80	0x10	16
81	0xef	-17
82	0xe7	-25
83	0x09	9
84	0x12	18
85	0xd8	-40
86	0x17	23
87	0xd5	-43
88	0x20	32
89	0xf4	-12
90	0xfc	-4
91	0xe2	-30
92	0x1c	28
93	0x06	6
94	0xc2	-62
95	0x00	0
96	0xd3	-45
97	0x08	8
98	0xce	-50
99	0x10	16
100	0xf1	-15
101	0xca	-54
102	0x1f	31
103	0x01	1
104	0x16	22
105	0x3f	63
106	0x00	0
107	0x18	24
108	0x16	22
109	0x02	2
110	0xee	-18
111	0xf8	-8
112	0x08	8
113	0xe9	-23
114	0x17	23
115	0x81	-127
116	0xda	-38
117	0x0c	12
118	0x13	19
119	0x15	21
120	0xe0	-32
121	0xff	-1
122	0x02	2
123	0xfe	-2
124	0xed	-19
125	0xd6	-42
126	0x15	21
127	0xf1	-15
128	0xfa	-6
129	0x1d	29
130	0x14	20
131	0x04	4
132	0x9a	-102
133	0x5b	91
134	0xa5	-91
135	0xbd	-67
136	0xd0	-48
137	0x81	-127
138	0xcb	-53
139	0xea	-22
140	0xde	-34
141	0xed	-19
142	0x1d	29
143	0x13	19
144	0xef	-17
145	0xd4	-44
146	0xf9	-7
147	0x04	4
148	0xe3	-29
149	0x19	25
150	0xc3	-61
151	0xf5	-11
152	0xe8	-24
153	0x1a	26
154	0x3a	58
155	0x02	2
156	0x37	55
157	0xb2	-78
158	0xf7	-9
159	0xe9	-23
160	0x14	20
161	0xf3	-13
162	0xfa	-6
163	0xcb	-53
164	0x2e	46
165	0xe2	-30
166	0x53	83
167	0x16	22
168	0x26	38
169	0xfd	-3
170	0x03	3
171	0x17	23
172	0x20	32
173	0x22	34
174	0x15	21
175	0xea	-22
176	0xa5	-91
177	0xd3	-45
178	0xbc	-68
179	0x26	38
180	0xae	-82
181	0xd4	-44
182	0xf4	-12
183	0x11	17
184	0x51	81
185	0x30	48
186	0x1e	30
187	0x16	22
188	0x24	36
189	0x29	41
190	0xb4	-76
191	0xda	-38
192	0xde	-34
193	0x20	32
194	0x3b	59
195	0xe0	-32
196	0x05	5
197	0xd5	-43
198	0xe7	-25
199	0xe4	-28
200	0xf0	-16
201	0x1f	31
202	0x0a	10
203	0x02	2
204	0xc9	-55
205	0xd0	-48
206	0x2a	42
207	0xcf	-49
208	0x07	7
209	0x1d	29
210	0xfe	-2
211	0xfa	-6
212	0x13	19
213	0x17	23
214	0xf1	-15
215	0x27	39
216	0xb0	-80
217	0xf6	-10
218	0x02	2
219	0xff	-1
220	0xa0	-96
221	0xed	-19
222	0xfe	-2
223	0xea	-22
224	0xf0	-16
225	0xd2	-46
226	0x01	1
227	0xe4	-28
228	0x34	52
229	0x0c	12
230	0x22	34
231	0xc3	-61
232	0x05	5
233	0xc6	-58
234	0x01	1
235	0x45	69
236	0xf9	-7
237	0x2a	42
238	0xff	-1
239	0xf4	-12
240	0xe9	-23
241	0x1e	30
242	0xa5	-91
243	0xf2	-14
244	0xd8	-40
245	0xf0	-16
246	0xdb	-37
247	0xa7	-89
248	0xf7	-9
249	0x00	0
250	0x20	32
251	0xed	-19
252	0xec	-20
253	0x10	16
254	0x1b	27
255	0xbe	-66

tfl.pseudo_qconst3 i1 [128, 64]
0	0x24	36
1	0x02	2
2	0xcc	-52
3	0x00	0
4	0xe7	-25
5	0x42	66
6	0x21	33
7	0x3f	63
8	0x0d	13
9	0xec	-20
10	0xe0	-32
11	0x0d	13
12	0x02	2
13	0xed	-19
14	0xd8	-40
15	0x14	20
16	0x09	9
17	0x15	21
18	0x29	41
19	0x1d	29
20	0xd6	-42
21	0x7f	127
22	0xf6	-10
23	0x06	6
24	0xff	-1
25	0x86	-122
26	0xf5	-11
27	0xa4	-92
28	0x30	48
29	0x27	39
30	0x21	33
31	0xc4	-60
32	0xac	-84
33	0xde	-34
34	0xef	-17
35	0x1a	26
36	0x02	2
37	0x0c	12
38	0xfb	-5
39	0x1d	29
40	0x17	23
41	0x0f	15
42	0xe8	-24
43	0x06	6
44	0xe7	-25
45	0x17	23
46	0xc2	-62
47	0x1d	29
48	0x07	7
49	0x1b	27
50	0x38	56
51	0xd6	-42
52	0xb0	-80
53	0x1c	28
54	0x16	22
55	0xf0	-16
56	0x0c	12
57	0x19	25
58	0xf0	-16
59	0xf1	-15
60	0xe6	-26
61	0x26	38
62	0x39	57
63	0x0b	11
64	0xee	-18
65	0xfc	-4
66	0xf1	-15
67	0x0b	11
68	0xb9	-71
69	0xfb	-5
70	0x05	5
71	0x1c	28
72	0x0d	13
73	0x07	7
74	0x10	16
75	0x01	1
76	0x0b	11
77	0xfc	-4
78	0x1e	30
79	0xd4	-44
80	0x26	38
81	0xba	-70
82	0xe5	-27
83	0x09	9
84	0x22	34
85	0x02	2
86	0x14	20
87	0xed	-19
88	0xf4	-12
89	0x1c	28
90	0x07	7
91	0x12	18
92	0xd0	-48
93	0x04	4
94	0xfa	-6
95	0x10	16
96	0x01	1
97	0xf3	-13
98	0x04	4
99	0xd6	-42
100	0x05	5
101	0xf2	-14
102	0xf9	-7
103	0xad	-83
104	0xd6	-42
105	0xdf	-33
106	0xfe	-2
107	0x08	8
108	0x01	1
109	0x81	-127
110	0xe4	-28
111	0x01	1
112	0xf2	-14
113	0xf3	-13
114	0x05	5
115	0xfc	-4
116	0x31	49
117	0x00	0
118	0x06	6
119	0xfa	-6
120	0x02	2
121	0x05	5
122	0xff	-1
123	0x02	2
124	0x0b	11
125	0xd7	-41
126	0xf4	-12
127	0x06	6
128	0xcc	-52
129	0x06	6
130	0xcf	-49
131	0x0b	11
132	0xe9	-23
133	0xbf	-65
134	0x01	1
135	0xaa	-86
136	0x81	-127
137	0x07	7
138	0x2a	42
139	0x02	2
140	0x02	2
141	0x0b	11
142	0x05	5
143	0x06	6
144	0x10	16
145	0xee	-18
146	0x0a	10
147	0xfa	-6
148	0xdc	-36
149	0x10	16
150	0x06	6
151	0x02	2
152	0xf3	-13
153	0x05	5
154	0x0a	10
155	0xd1	-47
156	0x01	1
157	0xec	-20
158	0xf5	-11
159	0x16	22
160	0xb0	-80
161	0xf5	-11
162	0xed	-19
163	0x10	16
164	0xcb	-53
165	0xf6	-10
166	0xf9	-7
167	0xae	-82
168	0xc2	-62
169	0x0f	15
170	0x2e	46
171	0x02	2
172	0xee	-18
173	0x1a	26
174	0x12	18
175	0xfe	-2
176	0x39	57
177	0x01	1
178	0x01	1
179	0x03	3
180	0xca	-54
181	0xfd	-3
182	0x08	8
183	0xdd	-35
184	0xf0	-16
185	0xb8	-72
186	0xfc	-4
187	0x02	2
188	0x28	40
189	0xfd	-3
190	0x01	1
191	0xdf	-33
192	0x1b	27
193	0xf8	-8
194	0xf5	-11
195	0x12	18
196	0x04	4
197	0xf2	-14
198	0xf5	-11
199	0x25	37
200	0xf1	-15
201	0xfc	-4
202	0xea	-22
203	0x18	24
204	0xfc	-4
205	0x0a	10
206	0xa3	-93
207	0xe1	-31
208	0xd1	-47
209	0x23	35
210	0xf3	-13
211	0x06	6
212	0x05	5
213	0xf3	-13
214	0xce	-50
215	0x02	2
216	0xcf	-49
217	0xe3	-29
218	0xb7	-73
219	0xf8	-8
220	0x39	57
221	0x14	20
222	0x13	19
223	0xdc	-36
224	0xe8	-24
225	0x03	3
226	0x03	3
227	0x0d	13
228	0x0c	12
229	0x0c	12
230	0x18	24
231	0xed	-19
232	0x51	81
233	0x11	17
234	0x0a	10
235	0xf2	-14
236	0x0a	10
237	0x81	-127
238	0x11	17
239	0x0b	11
240	0x20	32
241	0x1a	26
242	0xf1	-15
243	0xed	-19
244	0x0a	10
245	0x0a	10
246	0xea	-22
247	0xee	-18
248	0x02	2
249	0x06	6
250	0x08	8
251	0x09	9
252	0xdd	-35
253	0x0c	12
254	0x07	7
255	0x1c	28

sequential_1/dense_1/MatMul i1 [64, 42]
0	0x26	38
1	0x3d	61
2	0xad	-83
3	0xbf	-65
4	0xfc	-4
5	0xc2	-62
6	0xb6	-74
7	0xac	-84
8	0xa4	-92
9	0xc5	-59
10	0xdc	-36
11	0x64	100
12	0xae	-82
13	0xec	-20
14	0x42	66
15	0x11	17
16	0x11	17
17	0x1f	31
18	0xd1	-47
19	0x50	80
20	0xed	-19
21	0x39	57
22	0x5b	91
23	0xea	-22
24	0xea	-22
25	0x5e	94
26	0x7f	127
27	0x5a	90
28	0x25	37
29	0xcf	-49
30	0x31	49
31	0xe2	-30
32	0xc7	-57
33	0xfc	-4
34	0xf5	-11
35	0xf7	-9
36	0xf9	-7
37	0xfc	-4
38	0x05	5
39	0xac	-84
40	0xc0	-64
41	0x08	8
42	0x68	104
43	0xfc	-4
44	0x81	-127
45	0xed	-19
46	0x28	40
47	0x4d	77
48	0x40	64
49	0xc2	-62
50	0xea	-22
51	0xb5	-75
52	0x46	70
53	0x19	25
54	0x3d	61
55	0xd1	-47
56	0x9f	-97
57	0xb5	-75
58	0xbc	-68
59	0x4e	78
60	0xff	-1
61	0x25	37
62	0x03	3
63	0xc8	-56
64	0x25	37
65	0xd8	-40
66	0xaf	-81
67	0x15	21
68	0xd9	-39
69	0xe0	-32
70	0x4f	79
71	0x8f	-113
72	0x4c	76
73	0x23	35
74	0xe8	-24
75	0x27	39
76	0x1e	30
77	0xef	-17
78	0xf7	-9
79	0x13	19
80	0xa9	-87
81	0xa0	-96
82	0x85	-123
83	0xd4	-44
84	0xb6	-74
85	0x25	37
86	0x3e	62
87	0x82	-126
88	0x3a	58
89	0xdd	-35
90	0x51	81
91	0x48	72
92	0x81	-127
93	0x6a	106
94	0x09	9
95	0x44	68
96	0x38	56
97	0x03	3
98	0x09	9
99	0x03	3
100	0x10	16
101	0xfc	-4
102	0xdf	-33
103	0x3f	63
104	0x13	19
105	0x04	4
106	0xe3	-29
107	0xb0	-80
108	0x00	0
109	0x11	17
110	0xe0	-32
111	0x44	68
112	0xd5	-43
113	0xfc	-4
114	0xc8	-56
115	0xd8	-40
116	0xde	-34
117	0x0a	10
118	0xec	-20
119	0xfa	-6
120	0x5a	90
121	0xa5	-91
122	0x18	24
123	0xd0	-48
124	0xb8	-72
125	0xdd	-35
126	0x2b	43
127	0xa6	-90
128	0x1c	28
129	0xc0	-64
130	0x5e	94
131	0x1b	27
132	0x1e	30
133	0x41	65
134	0xc2	-62
135	0x67	103
136	0x94	-108
137	0xb7	-73
138	0x1c	28
139	0xe5	-27
140	0x15	21
141	0xa1	-95
142	0xb4	-76
143	0x7f	127
144	0x47	71
145	0x35	53
146	0x51	81
147	0x2d	45
148	0x6b	107
149	0xd9	-39
150	0xf4	-12
151	0x12	18
152	0xfa	-6
153	0xa1	-95
154	0xab	-85
155	0x0e	14
156	0x1c	28
157	0xc4	-60
158	0xce	-50
159	0xa0	-96
160	0x53	83
161	0x2c	44
162	0xc6	-58
163	0x69	105
164	0x41	65
165	0xde	-34
166	0xc4	-60
167	0xe7	-25
168	0xff	-1
169	0x34	52
170	0xb5	-75
171	0xa1	-95
172	0xa8	-88
173	0xde	-34
174	0x22	34
175	0x1d	29
176	0xf7	-9
177	0x3f	63
178	0xe5	-27
179	0x12	18
180	0x35	53
181	0x81	-127
182	0x1d	29
183	0xf6	-10
184	0x2d	45
185	0x4d	77
186	0x3f	63
187	0x29	41
188	0xd7	-41
189	0x04	4
190	0x3b	59
191	0xdb	-37
192	0x8f	-113
193	0x6a	106
194	0xa0	-96
195	0xd7	-41
196	0x0e	14
197	0xb6	-74
198	0xd7	-41
199	0xe4	-28
200	0xd4	-44
201	0x54	84
202	0x41	65
203	0x30	48
204	0x36	54
205	0xbd	-67
206	0xee	-18
207	0x27	39
208	0x2e	46
209	0x1c	28
210	0x0c	12
211	0x28	40
212	0xd3	-45
213	0xe0	-32
214	0x0c	12
215	0x36	54
216	0x03	3
217	0xf4	-12
218	0x1c	28
219	0xcf	-49
220	0xe7	-25
221	0x42	66
222	0x1f	31
223	0xfb	-5
224	0x08	8
225	0xd8	-40
226	0x0a	10
227	0xf8	-8
228	0x23	35
229	0x7f	127
230	0xe1	-31
231	0xc1	-63
232	0x08	8
233	0xe6	-26
234	0x28	40
235	0xd6	-42
236	0xf9	-7
237	0xff	-1
238	0xdc	-36
239	0xf9	-7
240	0xb2	-78
241	0xd1	-47
242	0x11	17
243	0x15	21
244	0xf4	-12
245	0x1d	29
246	0x40	64
247	0xf8	-8
248	0x04	4
249	0xc7	-57
250	0xeb	-21
251	0x4f	79
252	0xd3	-45
253	0x32	50
254	0x4c	76
255	0xd2	-46
