model/keypoint_classifier/keypoint_classifier.tflite (tflite, 6968 bytes, 6 tensors)

sequential_1/dense_5/BiasAdd/ReadVariableOp f4 [13]
00000000: 5801 9abe 26bb 82bf 0523 11bf 8360 5b3e
00000010: fa2a 053f b240 92bf 230a bd3e f44c e83e
00000020: d2dd 32bf ab03 ce3d 5d1e ee3e 5e33 7e3f
00000030: b423 d13e
-0.3007915 -1.0213363 -0.5669406 0.21423535 0.520187 -1.1425993 0.36921796 0.4537121
-0.6986972 0.10059293 0.4650754 0.9929713 0.40847552

sequential_1/dense_4/BiasAdd/ReadVariableOp f4 [10]
00000000: 4a21 56be 15de 7b3f 9e1b 86bc 8b4c 6d3f
00000010: c563 7cbf 618d f03e 9bd4 df3e 2d9a 0b3e
00000020: 330f 8dbe af6a adbd
-0.20911136 0.98385745 -0.01637059 0.9269492 -0.98589736 0.46982864 0.43716893 0.13633032
-0.2755066 -0.08467614

sequential_1/dense_3/BiasAdd/ReadVariableOp f4 [20]
00000000: a16c e2be 3cea 80bc 7ce1 4a3e 0f13 79bf
00000010: 4958 c9be e876 21bc 4532 7dbe de62 19bf
00000020: e9d2 7cbe 5f2a c7bd ee52 69bf e112 a0be
00000030: baf7 c43d 173d 25be 54d4 3a3f fb26 4e3f
00000040: 243c 52bf 5af5 9dbf bfa6 78bf 3763 bc3e
-0.44223502 -0.015736692 0.19812578 -0.97294706 -0.3932517 -0.00985501 -0.24726208 -0.59916484
-0.24689831 -0.097248785 -0.91142166 -0.31264403 0.096175626 -0.16136585 0.72980237 0.8052823
-0.8212302 -1.23405 -0.97129434 0.36794445

sequential_1/dense_3/MatMul f4 [20, 42]
00000000: a4f4 2abe 8655 49be d350 583d 7d74 4c3e
00000010: 4087 d03d c09f 533e b7a9 39bd 7465 803e
00000020: c2a6 08bf 58b1 9d3e c6ce f43d bba7 bcbb
00000030: 3e2c 183d 0916 503d 2315 8ebe b876 b6bd
00000040: 8022 19bf 79ed a0bd 27c2 383d c3cc 12bd
00000050: 592c 9c3d baf4 e73d 20df 3e3c 15eb 8c3e
00000060: 9238 c9be 0028 e63d f675 46be 3091 80bd
00000070: f005 abbc 56b2 97bb 7e41 09bf 63b2 153e
00000080: f5a1 6abf 7439 5b3e 8610 d1be c6e6 6fbc
00000090: ea59 17be d15b deba 5b22 43bf 078b ccbd
000000a0: 9051 76bf f7f1 54bd dc45 563e 7069 363e
000000b0: 0fa0 a1bd f2c9 383f e28c 3a3d 525d f23e
000000c0: 80b0 06be 2676 763e c3af a0be 101c b03c
000000d0: 97ae e1bd 9415 0f3f 86ce ef3d 89e2 6f3e
000000e0: a974 c2ba d234 b8bc e6b6 b8bd 1c0d 4cbe
000000f0: f66d 5ebe a8b1 073f 8967 943d bf34 6a3e
00000100: 69ff 86bb 2790 3e3d bf6b 87be 95c8 993d
00000110: 0455 56bd 6355 123f d960 9a3e cff8 be3d
00000120: 58da 41be c305 00bf df0a aebe fa0f 21bf
00000130: 27df 9a3d 9f6b 123f 16c2 743e f08d 48bd
00000140: ebe1 59bc 562d 2cbf 2b6c 4fbe 0f2e e0bf
00000150: 88ad 5f3e d8dc 583e a58f 45be 7c38 3c3f
00000160: 880c 0cbe 4a27 003f 284d 07be 6331 0b3f
00000170: f22e 2bbe 7145 103f af62 e1bd 9fcc b9be
00000180: 53dd b03d e7e5 ca3e b664 223e 7ea2 db3e
00000190: b852 973e b8ef ad3e 1d1c 303e 2483 a7be
000001a0: 2e95 3c3d 8154 9b3e 4305 663d bc12 af3e
000001b0: a7a9 e13e 7f8c 383e 07da ef3e e28a 0abf
000001c0: 9c11 9d3d 1562 d63d 8219 bd3e 14e4 313e
000001d0: 269c bf3e abdd aa3d e064 e03e f863 3ebf
000001e0: b885 aa3e 5a67 833e 8828 1d3f 53a4 653e
000001f0: 7f1c 293f af7f 583d 348c 9e3e 004a cfba
00000200: a7c6 d9bd a8ab 6c3e 04b2 bbbc bb61 35be
00000210: 7989 d83d 83d4 5dbe 71bf 903d db4b d7bd
00000220: fe06 0dbe 85bf 3abd d780 003c 1639 c7bd
00000230: 4bf0 b9bc 7607 f33d 6564 84bd 260d 263e
00000240: c41b 83bd b5fe 30be 760d b5bd b3d2 20be
00000250: a3cc 6d3d f44f 563e d328 f2bd 7137 a73d
00000260: f9a0 debb 6229 b0be 6b6c 7fbd eff7 ebbe
00000270: cecb f13d 02d9 46be 4e7a eb3c 2c71 383e
00000280: 19a9 e63c eb20 35bf 5e0c 573d cdac 9ebf
00000290: a610 f9bc 9bca 67bf b5e0 babc 6b48 cebe
000002a0: 90e0 fe3d 04c8 783e 99f8 28be 7439 84bf
000002b0: d860 1cbc 34ce d4be 650b ae3d d43d ddbe
000002c0: 14a3 4b3d bf46 c8bd fa0d 0f3f 9a42 7c3e
000002d0: 21ce fe3e b2c6 e53d 5f58 bb3e f329 8a3c
000002e0: 5f4f 7f3e 5a59 9e3c 2c40 333f 85f3 bf3e
000002f0: c4ea 833e e026 fa3d db11 e73e 6c4c 6cbd
00000300: f2a3 ae3e 1389 79bd eace 643f efda f23e
00000310: 33c8 ce3e 4966 263e 98c8 a03e 84ad 25be
00000320: d6ad ad3e f9d3 07be 61eb 503f 0e2d 0f3f
00000330: dc1b b43e 71d3 363e 0131 1a3f 0512 ea3d
00000340: b9b5 2a3f d2f7 c13d 9c59 5a3e 9340 64be
00000350: eccd c13d e5e3 183f 18b2 93bc a4bd 803e
00000360: 66c5 0d3d 082b 553e a7ac 24bd af3d 4d3e
00000370: d0c7 03bd db1c d23d ac3a 95bc ea43 eb3d
00000380: 21aa 31bd ef7d dc3d 0272 90bd d165 583d
00000390: 83dc 07bc 118a c23d a8a1 023a 9417 cb3d
000003a0: 7d09 563d ca20 8d3d d212 423d 391c d3bf
000003b0: 700e 2a3d 220f a63d 11a3 b4ba 03ca d73d
000003c0: 93e1 823d 4d4b e33d 7481 873d 035d 0d3e
000003d0: 4cff e3bb 7069 b63d 0b5c 8c3d 4a57 ad3d
000003e0: 6fc1 ffbc 9ab1 9c3d 5d4c 85bc 241f 893d
000003f0: 3886 54bd aa39 45be e579 f93d 9ca6 833f
-0.16694885 -0.19661531 0.052811455 0.19966312 0.10182047 0.20666409 -0.04532787 0.25077403
-0.5337945 0.30799365 0.119535014 -0.0057572997 0.037151568 0.050802264 -0.277505 -0.089093626
-0.5981827 -0.07857794 0.045107033 -0.035839807 0.07625646 0.11325975 0.011649877 0.27523103
-0.39300972 0.11238098 -0.19380936 -0.06277692 -0.020876855 -0.0046294136 -0.5361556 0.1461883
-0.91653377 0.21408635 -0.4083292 -0.014642423 -0.14780393 -0.0016964619 -0.762243 -0.09987455
-0.96218204 -0.05198857 0.20925087 0.17813659 -0.07891857 0.72183144 0.045544513 0.47336823
-0.13153267 0.24068508 -0.31384096 0.021497756 -0.110196285 0.558923 0.11709313 0.2342626
-0.0014835793 -0.022486124 -0.0901926 -0.19926876 -0.21721634 0.53005457 0.0724631 0.22871684
-0.0041198027 0.046524193 -0.2644939 0.07508961 -0.05232717 0.5716154 0.30152014 0.093248
-0.18930948 -0.5000879 -0.3399267 -0.62915003 0.07562094 0.57195467 0.23902163 -0.048963487
-0.013298492 -0.6725668 -0.20256107 -1.7514056 0.2184354 0.21177995 -0.19293077 0.7352369
-0.13676655 0.5005995 -0.13213027 0.54372233 -0.16717127 0.5635596 -0.110051505 -0.36288926
0.08635964 0.39628527 0.1585873 0.4289741 0.29555297 0.33971953 0.17198224 -0.3271724
0.046040706 0.3033791 0.05615736 0.3419398 0.44074747 0.18022345 0.4684603 -0.5411817
0.07669374 0.104679264 0.36933523 0.17372161 0.3742382 0.08343061 0.43826962 -0.7437129
0.33305144 0.25664788 0.6138997 0.22425966 0.66059107 0.052856144 0.30966341 -0.00158149
-0.10633593 0.23112357 -0.022912033 -0.17713062 0.10573096 -0.21663098 0.070677646 -0.10512515
-0.13772199 -0.045592804 0.007843218 -0.09727685 -0.022697588 0.118666574 -0.06464461 0.16215953
-0.0640178 -0.17284663 -0.08840458 -0.15705375 0.058056485 0.20928937 -0.11824193 0.081648715
-0.006794092 -0.34406573 -0.062359255 -0.46087596 0.11806451 -0.1941872 0.028744843 0.18011922
0.028156804 -0.70753354 0.05250203 -1.2396485 -0.030403446 -0.90543526 -0.022812227 -0.40289626
0.12445176 0.2429505 -0.16501082 -1.0330033 -0.009544574 -0.4156357 0.08498267 -0.43211234
0.04971607 -0.09779119 0.558807 0.24634781 0.4976664 0.11219539 0.3659086 0.016865706
0.24932621 0.019329716 0.70019794 0.37490478 0.2576505 0.12214446 0.4513081 -0.05769007
0.34109455 -0.06092174 0.89378226 0.47432658 0.40387115 0.16249956 0.3140304 -0.16179472
0.3392169 -0.13264455 0.8160916 0.55928123 0.35177505 0.17854096 0.60231024 0.11429218
0.66683537 0.09471096 0.21323246 -0.22290258 0.094631046 0.5972274 -0.018029258 0.25144684
0.034612082 0.20817196 -0.040203717 0.20043062 -0.032172978 0.1025941 -0.018216453 0.11487563
-0.04337514 0.107662074 -0.07052995 0.052831475 -0.00829232 0.0949899 0.0004983195 0.099166065
0.052255142 0.0689102 0.04738123 -1.6492988 0.041517675 0.08108355 -0.0013781508 0.105365776
0.06390681 0.11098347 0.06616488 0.13805012 -0.006957924 0.08906829 0.06853493 0.08463915
-0.031220166 0.07651062 -0.016271764 0.06695393 -0.051885813 -0.19260278 0.12181453 1.028522

sequential_1/dense_4/MatMul f4 [10, 20]
00000000: 3add 103f f44b f83b c43a 5f3f 55cd cd3e
00000010: e012 c8be 6b42 2f3d f763 8b3e 456f de3e
00000020: db16 8c3f 3890 22bf 8c9f 103f c0d5 4c3e
00000030: 2930 aabc 5506 1abe 4764 a83f 312c 883f
00000040: 1a9a 093f dcab 12be f500 a53e 8d2b 9d3f
00000050: f998 fdbd 58a9 2d3f 07f1 4abf e901 fc3e
00000060: 5a91 6b3c ad91 b23d 302b 533f cc13 cd3e
00000070: 30d4 a7be 43e1 34be f5d1 b83e 93fb 35bc
00000080: 99d5 1a3d 4b94 efbe db60 a5bf e4cd c0be
00000090: 1ae7 603e ec5e d13e 5940 233f cdc1 85bf
000000a0: 01ce 123f 7cdb 563f f3a6 743e f537 ca3d
000000b0: c511 8d3e cc47 053e 2ed1 923f af9a 1ebf
000000c0: 1e69 1c3f cd92 2dbe 8ceb 71bf a157 83bf
000000d0: c220 dcbd 8164 d53e 5f07 2b3e 74ae f33e
000000e0: f6b5 813d 4fb2 a73e 9393 0f3f d75b 19bf
000000f0: 40ac 89bd 5987 14bd a579 16be 87ea 4a3f
00000100: b5a1 f33d 19ea 083f 157e dfbe e94a a5be
00000110: 056b 3d3e f1ce 313e 450c c4be 6ecf 833c
00000120: 6686 6f3f d45c 75be 23e9 6b3c 7e3b 283c
00000130: 2961 6b3f 54e8 273f 8db7 d43e 84d1 3b3e
00000140: 5005 16be de7d 073c a363 25be 8d33 863f
00000150: 4ef8 403f 6525 a73d 741c 16bf e77c ccbd
00000160: 849f 0cbe 3ad4 d63d b605 85be 6d1f 2abe
00000170: 93f5 4cbe 1088 de3d cbf3 b2bd bb10 b63e
00000180: fc57 65be 2c76 01be 293a 9bbe d48b de3c
00000190: c85c 5f3f 39a6 1fbd 8665 2c3f e674 f43d
000001a0: 9432 893f b550 503e b545 10bf 32be 5c3f
000001b0: f7a2 233f 915b fc3e a30c 493f d8c6 8e3f
000001c0: 2b6f 873f e371 06bf 5468 8a3f ed7d 673f
000001d0: 4fec 14be 1838 5f3e 71b2 673c c054 1e3f
000001e0: a1b4 113e 48e5 423f c221 85bc 14c1 023f
000001f0: 5077 013d 6195 0d3f 3f7e 933d feda 3dbe
00000200: 87f1 963e e8de bd3f 9868 22be 0f31 5cbd
00000210: 556e 613f 5def a33f 2305 533d 4613 f6bc
00000220: 2b5b 35be df02 3b3e a9c8 823e 379d 10bf
00000230: a3e7 f7be d0ef 643e ce2d 5e3d f566 a03e
00000240: 49e3 f73e 684a 2340 7d5f 59bc 04b6 a3bd
00000250: cd39 2fbe 688c fb3f f80d 44be d2d3 37be
00000260: 33cf b3be b1c6 b93f 6008 7b3e 90bb b03e
00000270: eb1a 323e 0a09 453f 53ea 183e b782 543f
00000280: 1186 993e 6ab5 bb3d 18b0 8d3d a418 273e
00000290: 412d c93e 483a cb3c 4010 3bbd fe78 d13f
000002a0: 74a5 87be 493c 1cba 7883 9e3f 1062 693f
000002b0: 32fe dc3e 89d7 903f aa4a f03d 9769 953e
000002c0: 37c5 47be c4af 3b3f 72d9 093f 73ba 6ebe
000002d0: 81ff df3e a0c6 b03e 5fb5 e03e e124 bd3e
000002e0: 3384 f23d 013e d0be b187 993e 4a22 ac3c
000002f0: 8cc0 babe 9e59 8bbf 9a14 943e 5001 a43e
00000300: a735 b9be 4c24 043c 0f71 0d3f 7012 0c3e
00000310: e79a 8b3f f4d8 6d3f 8a53 ac3e 1db7 f13d
0.56587565 0.0075774137 0.87199044 0.40195718 -0.390769 0.04278795 0.27224705 0.43444267
1.0944475 -0.6350131 0.5649345 0.20003414 -0.020774918 -0.15041478 1.3155602 1.0638486
0.53750765 -0.14323372 0.32227293 1.2278916 -0.12382693 0.67836523 -0.7927403 0.49220207
0.014377916 0.08719192 0.82487774 0.40054166 -0.32779074 -0.17664056 0.36097685 -0.011107343
0.03780136 -0.46792826 -1.2920183 -0.37657082 0.21963158 0.40892732 0.6377006 -1.0449768
0.57345587 0.83928657 0.23891811 0.09873954 0.2755262 0.1301567 1.1470087 -0.6195478
0.61097896 -0.16950531 -0.9450004 -1.0261117 -0.107484356 0.4167824 0.1670203 0.47594035
0.063335344 0.32753226 0.56084555 -0.5990576 -0.06722307 -0.03626189 -0.14694841 0.7926411
0.118960775 0.53482205 -0.4365088 -0.32283714 0.18497856 0.17364098 -0.3829061 0.016090121
0.9356445 -0.23961192 0.014398846 0.01026809 0.9194513 0.6558888 0.41546288 0.18341643
-0.14650464 0.008269755 -0.1615129 1.0484482 0.7537888 0.08161429 -0.58637166 -0.09984761
-0.13732725 0.10489698 -0.2598092 -0.1661355 -0.20015554 0.108657956 -0.08737906 0.3555964
-0.22396845 -0.12642735 -0.3031781 0.027166285 0.8725095 -0.03897688 0.6734241 0.11936359
1.071856 0.20343287 -0.56356364 0.86227715 0.6392054 0.4928861 0.7853491 1.1154432
1.0580801 -0.5251753 1.0813088 0.9042652 -0.1454327 0.21798742 0.014141665 0.6184807
0.1422906 0.76131105 -0.016251449 0.51075864 0.031607926 0.5530606 0.07201814 -0.1854057
0.29481146 1.483365 -0.15860212 -0.053757723 0.8805898 1.2807423 0.05151857 -0.030038487
-0.17710559 0.18262814 0.25543717 -0.5648989 -0.48418912 0.22357106 0.0542429 0.3132855
0.48415592 2.5514164 -0.013267395 -0.07993701 -0.17111893 1.9652224 -0.19145954 -0.17951897
-0.35119018 1.4513761 0.24514914 0.345181 0.17393081 0.7696692 0.14933138 0.83011955
0.29985097 0.09165461 0.06918353 0.16317993 0.39292338 0.024808064 -0.045669794 1.6365049
-0.26493418 -0.0005959911 1.2383871 0.91165257 0.43162686 1.1315776 0.11732991 0.2918212
-0.19508825 0.7331507 0.5384742 -0.23313312 0.43749622 0.3452654 0.43888375 0.369422
0.11841621 -0.40672305 0.29986337 0.021012444 -0.36475027 -1.0886724 0.28921968 0.3203225
-0.36173746 0.0080652945 0.5525064 0.13678908 1.0906647 0.9290917 0.33657485 0.11802504

sequential_1/dense_5/MatMul f4 [13, 10]
00000000: 556c 0f3f 5cc4 0dbf 535e 1fbf b6bd e73e
00000010: 783f 9bbf 6a20 ee3e a243 2bbf 82bf c4bb
00000020: 310f abbe fbba e7ba 5aa9 473e 4bb4 963d
00000030: 3ef3 e1be a3b3 933e 223c bfbc 0241 af3d
00000040: 32c0 13bf 2af0 d6be 2670 033f 5913 b83e
00000050: 2311 4dbf b2b6 c6bd be7f b13e b6ca 0e3e
00000060: e276 dcbe ca3f f4be 0682 073f edbb e93e
00000070: 171d d73e 8996 30bf 89d4 29bd f9e9 563f
00000080: fa12 c6be feeb a1be 1ea8 3c3f 24c4 37bf
00000090: 0ab0 58bf 6b8e d8be f5f0 c43e a2f9 3c3f
000000a0: b76a b23e bf42 b9bf 4bb0 0dbf 60e5 8abf
000000b0: 2269 02bd e129 173f 360f f93e 46cc bfbe
000000c0: 655b 243f f788 86bf 04bc b5be 0f4f ff3e
000000d0: 2b48 9dbe da0a 02bf 2779 acbe 2325 3abe
000000e0: 1fd2 193f d99f 0d3f 8775 1b3f fdbd 01bf
000000f0: 2248 953e 9b3e 503f 2e04 363b 6b80 f2be
00000100: d3e9 bd3e ae38 19bf 7c2a 83be 4393 acbe
00000110: 5ba2 ab3c fb54 ed3d 61a9 8abf 95a2 07be
00000120: c819 923e 173e 503f eb7c 5ebf 9769 e2bf
00000130: 2952 d03e 7d9f 0d3f af53 69be dfe4 c1be
00000140: 4f83 9f3e e87c 56bf 7e83 823f e5c3 da3d
00000150: f619 85bd a0a1 34be 2683 18be 6231 103f
00000160: 5a45 95be 6f90 763e 1227 383f 2ed0 dcbe
00000170: a0df 1b3e 54df a8be 739a 6cbd 7173 b33c
00000180: e8b4 60bf 4f15 1f3f 35c9 57bf b7a6 a43e
00000190: 9c60 753d c2d2 99be 705f cbbe 0534 c3be
000001a0: 9c63 3cbf e65c 513f f778 02bf 37f4 30bf
000001b0: 5ee5 b13e 688f 8cbf e48d 81bf a5ed 0c3f
000001c0: c632 f0bf 5a3b 7d3f 3519 0ec0 61d8 6d3b
000001d0: 43a9 b7bd 2a6a 103f 6550 a1bf 2691 1abf
000001e0: df71 cd3d e1d8 f33e 1564 043f fd45 1c3f
000001f0: 94de f8bd b158 e7be 191a 863e 1529 e4bf
00000200: c4af 19bf a1f5 07bf
0.56024677 -0.55377746 -0.622533 0.45261925 -1.2128744 0.46509105 -0.66900074 -0.006004275
-0.33410028 -0.0017679626 0.19498196 0.07358607 -0.44130892 0.2884799 -0.023344103 0.08557321
-0.5771514 -0.41980106 0.51343 0.3595226 -0.80104274 -0.09702815 0.34667772 0.13944516
-0.4305945 -0.47704917 0.52932775 0.45651188 0.4201438 -0.689797 -0.041462455 0.83950764
-0.38686353 -0.3162536 0.73694026 -0.7178366 -0.84643614 -0.42296156 0.38465086 0.7381841
0.34847042 -1.4473494 -0.55347127 -1.085125 -0.031838544 0.5904828 0.48644418 -0.37460536
0.64201957 -1.0510548 -0.35495007 0.49865004 -0.30719122 -0.5079781 -0.33686182 -0.18178229
0.60086244 0.55322033 0.6072621 -0.50680524 0.29156595 0.8134553 0.0027773487 -0.473636
0.37092456 -0.5985211 -0.2561835 -0.33706102 0.02095144 0.11588474 -1.083294 -0.13245614
0.28535295 0.8134474 -0.8690936 -1.7688473 0.40687683 0.55321485 -0.22785829 -0.37869927
0.31154868 -0.8378434 1.0196378 0.10681895 -0.06499092 -0.1763978 -0.14893779 0.5632535
-0.29154474 0.24078535 0.71934617 -0.43127578 0.15222025 -0.32982886 -0.05776448 0.021905633
-0.8777604 0.6214189 -0.8429139 0.32158443 0.059906587 -0.30043608 -0.3972125 -0.38125625
-0.7358949 0.81782377 -0.5096583 -0.6912264 0.34745306 -1.0981264 -1.0121427 0.55050117
-1.8765495 0.9891869 -2.2202885 0.0036292302 -0.08967831 0.56411994 -1.260266 -0.6037773
0.10031485 0.47626403 0.51715213 0.61044294 -0.121518284 -0.45184854 0.26191786 -1.7825037
-0.6003382 -0.53109175
