model/keypoint_classifier/keypoint_classifier.tflite (tflite, 7864 bytes, 6 tensors)

arith.constant f4 [32, 10]
000000 b0 f6 b4 bc 9c bd 37 bf bc 8a 44 3e 34 36 bf 3d
       -0.022090286 -0.71773696 0.19193548 0.0933651
000010 24 85 f7 3e e5 eb 84 3c 80 4d 42 be f8 a9 f4 3e
       0.48343766 0.016225765 -0.18974876 0.47785926
000020 44 f5 58 be 14 51 e7 be af 93 08 be 31 78 64 bf
       -0.21187311 -0.45179045 -0.13337587 -0.892459
000030 8e 73 8b 3f 37 08 48 bd d2 1e 66 bf 96 d8 4c c0
       1.089464 -0.04883596 -0.8989078 -3.2007194
000040 b1 f7 bd bd 1b 02 19 bf ce 3a ec 3c 5e 4a 8e be
       -0.09275759 -0.5976884 0.028836634 -0.27791113
000050 1f dd 17 c0 b4 fd 48 3f 16 b3 d7 be ac c2 25 bf
       -2.3728712 0.7851212 -0.4212882 -0.6475017
000060 0d 19 11 bf 6f 97 a0 be 3e 0b a2 bd 20 70 49 be
       -0.5667885 -0.31365535 -0.079123005 -0.19671679
000070 ec 4e fb 3e 15 55 f3 be 33 d5 4a c0 48 4e 24 3f
       0.4908365 -0.4752585 -3.1692626 0.6418195
000080 2e 8c 89 bf 8f f1 05 bf ae 05 7a 3c 99 f6 34 3d
       -1.0745904 -0.52321714 0.015260143 0.044180486
000090 46 79 95 bf 2f 5d 7f be 8a a1 06 3f 93 7a d4 3e
       -1.1677635 -0.2493789 0.5259024 0.41499767
0000a0 0a a5 b3 bf 91 4f 67 3f be 13 d2 be 29 b9 ef bd
       -1.4034741 0.90355784 -0.41030687 -0.11705238
0000b0 94 5f 57 3c 3a 5b 38 3e c0 7d 3a be ff e5 0a 3f
       0.013145346 0.1800355 -0.18212032 0.54257196
0000c0 b8 1b 2a bf ab ec 56 bf 02 44 15 3e a4 b8 b3 bf
       -0.66448545 -0.83954877 0.14576724 -1.4040723
0000d0 f9 0e 59 3f d4 5e bc be 0d 30 ae bb 8c 2a 4b 3d
       0.8478847 -0.36791098 -0.0053157867 0.049601123
0000e0 73 fb 98 bf 52 e9 34 3e e9 b3 01 bf 65 c9 8c 3e
       -1.1951736 0.1766713 -0.50665146 0.27497402
0000f0 ea b9 2a 3f 4a f8 b4 3e 4b a4 37 bf cd 76 e1 bd
       0.6668993 0.3534568 -0.71735066 -0.110089876
000100 c5 a5 1b bf e8 45 99 3e 11 10 5d be 3c 5d 9b be
       -0.6079982 0.29936147 -0.2158816 -0.3034457
000110 94 06 cb be 56 43 35 bf b9 6b 36 bf 69 44 51 bf
       -0.39653456 -0.7080587 -0.7125812 -0.8174501
000120 f5 f5 12 be bd 4f a6 bf 2d 85 a2 3e e9 bb 1c 3e
       -0.14351638 -1.2993084 0.3174223 0.15306057
000130 95 87 6a 3e 67 cf aa 3d 0e e9 4c 3e e8 5e af 3e
       0.22903283 0.0834034 0.20010778 0.34252095
000140 70 4d 6a bf 95 36 75 bf cf 4e 45 3e c3 c5 b9 bd
       -0.9152441 -0.9578641 0.19268344 -0.09070923
000150 37 5a a8 bf 26 8c 4e 3e 31 46 8a bf 1c 80 e6 be
       -1.3152531 0.2017065 -1.0802671 -0.45019615
000160 53 c3 50 3f af 4a 13 3f 34 6d b4 bd 80 b5 97 bf
       0.8154804 0.57535833 -0.08809891 -1.1852264
000170 68 9c 7c 3f e2 95 44 be 13 92 84 bf dd e2 09 3e
       0.98676157 -0.19197801 -1.0357078 0.13465448
000180 a7 51 e1 be e1 e2 58 bf 5e bc 35 bf c0 ee 11 3f
       -0.44007608 -0.8472119 -0.7099055 0.5700493
000190 f9 cd 95 bd 39 5a 98 be aa 86 0a bf 71 ba 14 bf
       -0.07314677 -0.29756334 -0.5411173 -0.58096987
0001a0 3b 5c f4 3d f4 16 f2 3e f6 4f 29 3f 21 7a 1c bf
       0.11931654 0.47283137 0.66137636 -0.61123854
0001b0 af fd 9a 3d 7e e8 99 be 12 d2 e8 3e e5 29 16 be
       0.075679176 -0.3006019 0.4547277 -0.14664419
0001c0 94 76 14 bf 00 10 39 3d b5 7c cb 3e ec 82 8c 3d
       -0.57993436 0.045181274 0.3974358 0.06860909
0001d0 b9 41 7b 3e 73 53 4f be 48 d7 d5 bd a0 f3 89 3c
       0.2453679 -0.20246677 -0.10441452 0.016839802
0001e0 c5 2b e6 bb f9 97 12 bd 3b b6 0d bf 8c 72 c1 3e
       -0.0070242607 -0.035789464 -0.55356187 0.37782705
0001f0 2a e4 fc bd c9 49 0f be df 22 0d 3d 04 52 87 be
       -0.12348206 -0.1399299 0.034457084 -0.2642976
000200 1b 14 6b 3e b5 18 bb 3e ff 5a b0 bd 0b 98 8e be
       0.22956888 0.36542287 -0.08611106 -0.27850375
000210 73 23 fe be 5e 47 b1 be 38 8c 2a 3e 86 7a 2e 3d
       -0.4963642 -0.3462476 0.16655052 0.042597316
000220 96 03 08 3f 02 b1 24 bf ed b6 2f 3e 94 be e0 bd
       0.5313047 -0.6433259 0.17159624 -0.1097385
000230 6d 09 9b be 66 60 55 bd 66 52 fe be 4d dc 9f bf
       -0.3028063 -0.052093886 -0.4967224 -1.2489105
000240 25 53 1c 3e e8 0b 2b 3f 82 c8 25 3f eb 89 55 3e
       0.15266092 0.6681504 0.64759076 0.20853393
000250 ed 7b 9b 3d 78 2c ee be e8 9a 31 bd 08 1a 66 bd
       0.07591996 -0.46518302 -0.04336062 -0.05617717
000260 c4 c8 71 3e 4c 4c e9 3c 71 38 1a 3e 5a cb 8e 3e
       0.23611742 0.028478764 0.15060593 0.2788952
000270 7e 4e 9a bd d8 75 cb 3e 56 94 e5 be 6f d3 c5 bd
       -0.075345024 0.39738345 -0.44839734 -0.096594684
000280 b3 d4 b6 3e 32 14 3b 3e 84 fc 1b bf 40 f3 9f be
       0.35709152 0.18269423 -0.60932183 -0.31240273
000290 85 8c 04 3f 81 ea 04 3f 6e 48 70 3d 78 ea 95 be
       0.51776916 0.51920325 0.058662824 -0.29280448
0002a0 ea 20 20 bf ab 27 ce 3b 67 36 d3 3e 66 d6 87 3e
       -0.6255022 0.00629135 0.41252443 0.2653076
0002b0 f4 ef c1 3e 98 b4 23 3e f3 d5 8a bf 27 7b 11 bf
       0.37878382 0.1598686 -1.0846542 -0.5682854
0002c0 f0 49 09 c0 6c 0c 22 be 13 87 07 3d 15 ab cf be
       -2.1451378 -0.15825051 0.0330878 -0.40560213
0002d0 07 53 c0 3c 08 aa 03 bf 09 42 cf be 87 48 19 c0
       0.02347709 -0.5143132 -0.40480068 -2.3950517
0002e0 bd 95 fe bd 4b 59 e2 3c 5f e5 6e bf dc c5 0c 3f
       -0.12430904 0.027630469 -0.9331874 0.5498941
0002f0 48 79 ab bc a2 8d 2b 3f 89 52 b3 bd 32 02 0f bf
       -0.020931855 0.6701299 -0.08755977 -0.55862725
000300 7a b7 a2 bd e8 bf 3c be 24 f8 15 be 35 db c9 3e
       -0.079451516 -0.18432581 -0.1464544 0.39425054
000310 61 8e b0 bf a5 c6 e3 3e 30 d6 5f bf d7 f1 d3 3e
       -1.379345 0.4448749 -0.874362 0.41395447
000320 55 13 9e 3e 8c 56 aa bf 7e a4 d1 3e 77 e1 99 be
       0.30874124 -1.3307662 0.4094581 -0.3005483
000330 8b fa b6 be 97 57 d5 3e 80 4e 3c bf b8 d3 80 bc
       -0.35738024 0.41668388 -0.7355728 -0.015725955
000340 33 94 95 bf 4c 91 ed 3e be d1 d0 3e f6 1e 6f bf
       -1.1685852 0.46399915 0.4078502 -0.9340662
000350 cb b6 b0 3d ee a7 b7 bc d2 73 53 3f f8 1e f2 be
       0.08628615 -0.022418942 0.825986 -0.47289252
000360 af d1 2e bf 07 0b 39 3e b5 cc 60 3d 6f 6c 24 bf
       -0.682887 0.18070613 0.054882724 -0.64227957
000370 86 19 f3 3e 0b bc 6b 3e b4 06 89 bf d7 50 ab 3e
       0.4748041 0.23020951 -1.0705171 0.33460113
000380 18 bb 01 bf d3 9c c1 3e d3 49 8e bf 5a 28 0c be
       -0.5067611 0.3781496 -1.1116279 -0.13687268
000390 ad 65 08 be 60 73 58 bf a8 f6 1c bf a6 db 8c be
       -0.13320036 -0.8455105 -0.6131387 -0.27511328
0003a0 24 32 b4 be 46 7f 1a 3e f7 30 f1 bc f4 eb c3 bf
       -0.35194504 0.15087613 -0.029442294 -1.5306382
0003b0 e9 40 af 3d 42 51 7a 3f 68 4f 4f 3e cd 3f 0b bf
       0.085573025 0.9778024 0.20245135 -0.5439423
0003c0 10 c4 d1 be 27 e8 08 be ee 02 87 3d c3 92 50 3e
       -0.40969896 -0.13369809 0.06592356 0.20368485
0003d0 5e 57 0f bf 06 ad 8f bf 37 f1 96 be 84 ca 35 3f
       -0.55992687 -1.1224678 -0.29480907 0.7101214
0003e0 07 0f 26 3f 0e a6 2e bf dc 9e 38 bf a7 28 0b 3f
       0.6486668 -0.6822213 -0.721174 0.54358906
0003f0 09 e7 79 bf f1 20 d3 3e 01 6a 96 3d 7c 6a 17 3e
       -0.97618157 0.4123607 0.073444374 0.14786714

arith.constant1 f4 [10, 20]
000000 49 4f 77 3e cc 35 57 be 19 58 03 40 fc 5d 4f 3f
       0.24151339 -0.21016616 2.052252 0.81002784
000010 1f 2c bc 3e 40 11 60 3d c7 55 26 3e e1 04 60 3f
       0.36752412 0.05470395 0.16243659 0.87507445
000020 58 2c 1d 3e fc b3 ab 3f 15 14 60 3e 30 d0 9c 3f
       0.15348947 1.3414302 0.2188266 1.2251034
000030 3c 80 90 3d b1 ab c5 bd b0 bb 03 bf d5 20 81 be
       0.07055709 -0.09651888 -0.51458263 -0.2522036
000040 e9 b5 5c 3d ea 5d d0 3d 53 c9 fa 3f 8a 85 3e be
       0.05388442 0.10174163 1.9592689 -0.18605629
000050 ed 90 e6 3f a9 9e 74 bf 3f bb 6a bd 10 93 10 3f
       1.8012978 -0.95554596 -0.057307478 0.564744
000060 9a 7e 77 bf 4b 40 6b 3e 81 f6 1c 3f 24 1e 0e bd
       -0.96677554 0.22973745 0.61313635 -0.034696713
000070 d5 0a 33 3f f6 57 22 3e 71 44 b1 3f 05 87 37 c0
       0.69938403 0.15853867 1.3849012 -2.867616
000080 e5 2f 66 3f 04 95 55 3f 62 f7 94 bf 9a a3 ec 3e
       0.8991683 0.83430505 -1.1637995 0.46218568
000090 cd 3a 12 3f bb 30 a8 3f 5b b8 a5 3e 92 49 b8 3e
       0.5712097 1.3139871 0.32367215 0.3599363
0000a0 d5 cb 35 be 63 4b 1b bf 9f 5f af 3f a5 14 62 3e
       -0.17753537 -0.60661906 1.3701056 0.22078188
0000b0 79 9f 90 3e 2c 90 2a 3e af 9a 17 c0 17 cc 61 be
       0.28246668 0.1665656 -2.3688161 -0.2205051
0000c0 0d 74 59 bf 0c c9 f4 3d 2b 38 89 bc f4 5e d5 3f
       -0.84942704 0.11952409 -0.016750416 1.6669602
0000d0 8a 6d 2e be c1 ba d4 3d d8 42 1d be d6 ac c9 3e
       -0.17033973 0.10387183 -0.1535753 0.39389676
0000e0 30 ea 88 c0 c0 25 b3 bf 6e a0 da 3e 04 37 01 be
       -4.2785873 -1.3995895 0.42700523 -0.12618643
0000f0 4e f3 64 3f b2 04 30 be 00 49 07 40 ec cc b1 3d
       0.89433753 -0.17189291 2.1138306 0.08681664
000100 19 cf 0f 3f f2 41 0e 3e fd a3 89 3e dc 95 be 3e
       0.5617538 0.13892344 0.26882926 0.3722371
000110 13 2f 60 3d 5d 94 20 3f b4 63 2a 3f 64 6e 8a 3d
       0.054732393 0.62726384 0.66558385 0.067593366
000120 c9 31 90 bf 96 5f 56 3f 0e 8c 00 3f e2 10 1f 3f
       -1.1265193 0.837396 0.50213706 0.62135136
000130 a2 30 5a 3e 50 23 d7 be 13 e8 36 3f 58 3b 68 3d
       0.21307614 -0.4201913 0.7144787 0.05669722
000140 1b 79 59 3e 59 6c a0 3f 2f e0 e5 3e ec b3 a1 be
       0.21237604 1.2533065 0.448976 -0.31582582
000150 d3 b5 f2 3e 10 7c 57 3f 38 1b 54 3c 88 ff 84 3e
       0.47404346 0.8417368 0.012945943 0.25976205
000160 8d 1e 94 bd 58 5f 29 bd 7e b0 ad 3e 39 9c a1 3f
       -0.072323896 -0.041350693 0.33923715 1.26258
000170 b7 32 10 3f 0b 7e 57 bf 6a 83 d5 3f 95 42 03 3f
       0.56327385 -0.841767 1.6680729 0.5127347
000180 a5 d7 1e bd 43 e9 04 3f 77 84 f4 3e 58 0a 85 be
       -0.038779873 0.5191843 0.47757313 -0.25984454
000190 94 73 62 be cd db 4f 3c 8e bd 0a 3d a8 bc 87 3f
       -0.22114402 0.012686682 0.03387218 1.0604448
0001a0 a2 a8 92 3d ea 5f 58 3f 8c 2b 0c 3f f3 d7 16 3e
       0.071610704 0.84521353 0.5475395 0.14730816
0001b0 9e e1 3f bf b3 c0 bd 3d b0 a5 07 3e 43 2b a5 3c
       -0.7495364 0.0926527 0.13246799 0.02016223
0001c0 3f fd 83 3e 35 c3 d4 3e 3e 22 57 3e ab 7f 04 3e
       0.2577915 0.4155518 0.21009156 0.12939326
0001d0 88 ab 67 3f 7d 06 ff 3f c0 56 4c 3f 3d e8 9d 3f
       0.9049611 1.9923855 0.7981987 1.2336498
0001e0 9b 1e 7e 3d a4 de 0b 3e 9e 59 4b 3f 4e 99 e8 3d
       0.062040906 0.1365915 0.7943362 0.113573655
0001f0 10 21 ab 3f b1 8c 1f 3e f1 27 39 3f bf b6 a1 3f
       1.3369465 0.15581013 0.7232657 1.2633895
000200 7f 53 e9 3f 91 ea cd 3d 2c 91 42 3e 73 40 dd 3f
       1.8228606 0.100545056 0.19000691 1.7285293
000210 42 e0 1a 3f af 7f d7 3d a8 03 ba 3f ed c1 cf 3f
       0.6049844 0.105224006 1.4532366 1.6231056
000220 19 a9 14 3f 60 e5 89 be 41 4f 33 be 85 e5 1e 3f
       0.5807052 -0.26932812 -0.17510702 0.6206897
000230 8e 7f 4a c0 eb a0 77 3f 7b 93 83 3d 08 3c b4 3e
       -3.1640353 0.96729916 0.06424614 0.3520205
000240 a9 cb 9e 3e b0 6c 9d bc 3e a6 19 3e 2d 16 d1 3e
       0.31014755 -0.019216865 0.15004823 0.4083723
000250 28 ba b8 3d 08 87 79 3f fc 8b 02 c0 d5 d2 33 be
       0.090198815 0.97471666 -2.039794 -0.17560895
000260 30 55 b6 bf 5e 5b 8e bf b1 bc ad 3e 53 4c 8c 3e
       -1.4244747 -1.1121633 0.33933023 0.2740198
000270 5c 17 21 bc 99 9d 55 be 7f cf 8d 3f eb 80 90 3e
       -0.009832229 -0.208609 1.1078948 0.28223357
000280 6d d3 14 3f 11 f3 4b bf 9c 3b 86 be 47 89 a4 3e
       0.5813511 -0.79667765 -0.26217353 0.32135984
000290 0c d0 97 3f 64 b2 e2 3d 23 20 24 3e 8e 2e 51 3f
       1.1860366 0.110691816 0.16027884 0.8171166
0002a0 5f 04 37 bf 8f bb 55 3d bb 50 21 3f c7 4f 3d be
       -0.71491045 0.052180823 0.6301381 -0.18487464
0002b0 64 bc a5 3e 6b f5 7f 3d 3b 9a 0e 3f d5 06 b8 3e
       0.32370293 0.06248991 0.55704087 0.35942712
0002c0 cd 18 e8 ba e4 71 08 3e e2 e4 8a 3d 46 7e d8 bd
       -0.0017707587 0.13324696 0.06781937 -0.1057096
0002d0 da 6a 6d 3e fb 22 51 3f 21 da e1 3e c7 5a 94 3f
       0.23185292 0.81694 0.44111732 1.1590203
0002e0 65 ea c6 3e 5c ce ec 3f 12 1f 26 bf 68 1c cf bf
       0.38850704 1.8500476 -0.6489116 -1.6180544
0002f0 2e 2b 0c bf a8 04 88 3e 1e de 82 3c 66 94 64 3e
       -0.54753387 0.26566052 0.015975054 0.22322235
000300 46 b9 29 3f 92 18 bd 3e ef db 8e 3e 9b 98 d4 be
       0.6629833 0.36932808 0.2790217 -0.4152268
000310 ec dc 1a bf bc 49 da bd 70 0a 1a 3f da c1 e7 3f
       -0.6049335 -0.10658595 0.60172176 1.8106034

sequential_3_1/dense_10_1/BiasAdd/ReadVariableOp f4 [10]
000000 c2 18 46 3e 01 24 27 3f 5c 44 1f 40 8b 73 b7 3f
       0.19345382 0.6528931 2.4885473 1.4332136
000010 2d e1 80 be b1 cb 02 be 3b eb 4f bf c8 98 b3 3f
       -0.25171795 -0.12773015 -0.8121831 1.4031
000020 61 a6 bd 3f 39 2b d3 3f
       1.48164 1.6497566

sequential_3_1/dense_11_1/BiasAdd/ReadVariableOp f4 [32]
000000 d9 3d 42 bf 42 f5 87 3f 27 6c 13 40 a3 e8 c3 3e
       -0.7587562 1.0621722 2.303476 0.38263425
000010 10 82 33 be 51 10 56 3e 14 37 f9 3e b0 58 86 3d
       -0.17530084 0.20904662 0.48674834 0.065598845
000020 6b 90 0e 3f e2 99 3a 3e 5c 87 e8 be 16 77 e6 bf
       0.55689114 0.18222764 -0.4541577 -1.8005092
000030 aa d6 1b c0 31 a1 b6 3e f1 88 aa bf 0d c7 20 bf
       -2.434977 0.35669854 -1.3323041 -0.6280373
000040 14 ca 95 bf 58 bd 6b be 8d b4 98 3f ce 14 6a be
       -1.1702294 -0.23021448 1.19301 -0.22859499
000050 05 15 c7 be 7d 9b 9a 3e 63 e9 ae 3e 1a 96 f1 3e
       -0.38883224 0.30196753 0.34162435 0.4718483
000060 51 62 23 3f c0 61 8a 3f b8 09 4b bf 56 46 85 be
       0.63821894 1.0811081 -0.79311705 -0.26030225
000070 1a 33 7a 3f 36 48 ab 3c d3 c8 d2 3e a0 22 61 3d
       0.97734225 0.020908456 0.41168842 0.05496466

sequential_3_1/dense_9_1/BiasAdd/ReadVariableOp f4 [20]
000000 c0 56 fb bf 4a b8 23 bf c6 0e c1 bf 06 62 4a 3e
       -1.9635849 -0.6395308 -1.5082633 0.19763955
000010 a0 20 ce bf f6 da d6 be 9d 5c a1 3e e8 fb 6e bf
       -1.6103706 -0.4196393 0.3151597 -0.9335313
000020 8c a6 70 3f bd a7 98 bf bc 38 bc bf f1 44 9a bf
       0.9400413 -1.192619 -1.4704814 -1.2052289
000030 f1 20 ce 3f 52 7a 0e bf 24 62 bf bf a1 e0 2e be
       1.6103803 -0.55655396 -1.4951825 -0.17077877
000040 e2 19 cd 3f 4a 85 be 3f 7d 27 3b bf 6f 98 ba 3f
       1.6023524 1.4884427 -0.7310713 1.4577769

sequential_3_1/dense_9_1/MatMul f4 [20, 42]
000000 5a dc 10 3e 70 6f 8d 3e ed fa 9f be ce 8e 36 c0
       0.14146557 0.27624083 -0.3124613 -2.852466
000010 ff 8d 3d be 11 5f b6 bf 3d 0d 4a bd 44 a2 85 bf
       -0.18511198 -1.4247762 -0.04932903 -1.0440145
000020 85 a8 d5 3d a5 28 67 bf f1 c2 93 be 48 0f 6f be
       0.10432533 -0.90296394 -0.28859666 -0.23345673
000030 76 60 a2 be 98 f1 8e bd 9b a1 84 be 81 f7 24 3e
       -0.3171422 -0.06979674 -0.25904545 0.1611004
000040 26 5b 30 be d2 5a 63 3e 8d 89 e6 be 7a fe 24 be
       -0.1722227 0.22202614 -0.45026818 -0.161127
000050 03 41 93 be 1c cd d5 bd 5a b8 4f be 97 d9 b1 3d
       -0.28760538 -0.10439512 -0.20285168 0.0868408
000060 dc 95 f9 bd 39 17 06 3e 97 dd a6 be c1 f7 bb bd
       -0.121867865 0.13094796 -0.32590935 -0.09178115
000070 0e f4 6c be 46 dc 25 bd 40 35 f3 bd b1 f0 de 3d
       -0.23139974 -0.040493272 -0.11875391 0.10885752
000080 a6 a3 29 3d 6c 4a 19 3e d8 29 d4 bd f5 a7 9e bd
       0.041415833 0.14969796 -0.103595436 -0.07746879
000090 0b a7 3d be ac f5 59 3d 67 7a 18 be dd 02 79 3e
       -0.18520753 0.053212807 -0.14890443 0.24317499
0000a0 d6 f4 20 be 51 be 87 3e 14 1b d4 3d 40 3c 35 3e
       -0.15718397 0.26512387 0.10356727 0.17698765
0000b0 68 50 79 3e e7 1e af 3f 3f ad 94 3d 04 03 b9 3e
       0.24347079 1.3681306 0.072596066 0.36135113
0000c0 74 e1 a7 be 81 5b 42 3e 61 c8 c1 bf fe 35 06 3e
       -0.32789195 0.18980218 -1.5139276 0.13106534
0000d0 77 81 ab 3e d7 b4 28 3e 72 72 3b 3e 92 fe e9 3d
       0.3349721 0.16475235 0.18305376 0.114255086
0000e0 8d 7d bd ba d5 1d 3b 3e e3 16 04 be 06 7e 51 3e
       -0.0014456973 0.18273099 -0.12899356 0.2045823
0000f0 4f 98 36 3f 97 27 c2 3d 6b ed 0a 3f 15 d5 38 bd
       0.71326154 0.094802074 0.5426852 -0.045125086
000100 91 13 04 3f 42 37 1a be b5 48 0a 3f 5a 7f bc bc
       0.51592356 -0.15060142 0.5401719 -0.023009945
000110 c8 7e b3 3e d1 93 33 3d 31 27 9d 3e 2c 5c 27 be
       0.35057664 0.04384214 0.30693963 -0.16343755
000120 5b 02 1b 3f fa 62 ff be c6 a7 26 3f c6 0e 2f be
       0.6055047 -0.498802 0.6509975 -0.1709548
000130 18 3e a9 bd 4d f9 dc 3d 39 31 0f be 9f e6 28 be
       -0.082637966 0.10789738 -0.1398362 -0.16494225
000140 19 ee ad 3d d9 70 05 bf 99 85 57 3e d0 69 31 bf
       0.08492679 -0.52125317 0.21047057 -0.6930208
000150 20 11 6a 3d 44 34 9f 3e da c3 f0 be b3 f4 9d 3e
       0.057145238 0.31094563 -0.47024423 0.30850753
000160 3e c7 e1 bd d0 6a 55 3e 86 62 ca 3b 93 ba 4c 3e
       -0.110243306 0.20841527 0.0061762957 0.19993047
000170 94 81 30 bb c1 33 31 3e 86 ba 63 3c 7f 07 df 3b
       -0.0026932703 0.17304899 0.013899451 0.0068063135
000180 bd 11 2c bc 1e 59 64 3d 78 5c c1 bd 11 b2 aa 3d
       -0.010502276 0.05574905 -0.09441465 0.08334745
000190 ec 1a d2 bd dd 7f af 3d 18 b6 c1 3c da 6a 04 bd
       -0.10259041 0.0856931 0.0236464 -0.032328464
0001a0 2a c7 87 bb 9d 6d ad 3c 93 98 60 bd 25 3d 42 c0
       -0.0041436153 0.021170432 -0.054833006 -3.034982
0001b0 1d 36 d8 bd de 69 22 3d a3 b8 95 bc 02 63 2a bd
       -0.10557196 0.039651744 -0.018276518 -0.041598327
0001c0 e1 43 47 bd 41 ab 20 3d 14 0c a8 bd c5 03 a3 3d
       -0.04864872 0.03922582 -0.08205429 0.07959703
0001d0 76 39 84 be 0e 5c be 3d f6 36 f0 bc 64 f3 7d bd
       -0.2582509 0.09294902 -0.029323082 -0.061999694
0001e0 04 40 30 bc 5b 64 78 3d 2b 96 16 be 6f 3d 0a 3e
       -0.01075745 0.06064258 -0.14705722 0.13499998
0001f0 ee 11 90 be 64 8d 42 3e ca cd 91 3e 08 d4 4f 3d
       -0.2813868 0.18999249 0.28477317 0.050739318
000200 86 10 ff 3f 99 2a 84 3f 6d b3 ac 3f 86 b9 3a 3f
       1.9926918 1.03255 1.3492256 0.72939336
000210 a0 7a 65 3f c2 a5 25 3f 02 b3 cd 3e df 29 20 3f
       0.89640236 0.6470605 0.40175635 0.6256389
000220 ba 21 a1 3f a1 c0 4b 3e 18 38 17 3f af c1 72 3e
       1.2588418 0.19897701 0.5906997 0.23706697
000230 d3 65 96 3e a5 91 b3 3e c7 57 28 3e cc f9 e6 3e
       0.2937456 0.35072055 0.16439734 0.45112455
000240 bd 9e 2d 3f a3 00 02 be 13 73 f9 3d 1b f4 86 3d
       0.6782034 -0.12695555 0.12180152 0.06589528
000250 4d 9f 82 bd 48 33 46 3e 20 50 03 be b3 59 0b 3d
       -0.063780405 0.193555 -0.12823534 0.03402109
000260 f2 a7 05 3d e3 4a 1c bf fe 4d ae be b8 cf 46 be
       0.03263087 -0.6105177 -0.34043878 -0.19415176
000270 97 21 1d bf 5b 3c b2 bd 41 00 21 bf c1 39 f4 3e
       -0.6137938 -0.08702918 -0.6289101 0.47700313
000280 1d 91 24 bf a3 b7 a6 bf 87 b3 6f bf 01 e2 20 bf
       -0.64283925 -1.3024791 -0.9363331 -0.62844855
000290 33 87 93 bf c5 28 13 bf 90 57 58 bf a6 b3 d4 be
       -1.1525635 -0.57484084 -0.8450861 -0.4154331
0002a0 80 3d 2e 3e 24 54 56 3e d1 3b 1f bf 80 d8 ce 3e
       0.17015648 0.20930535 -0.6220065 0.4039955
0002b0 84 5c fd be 38 fa 45 3e 15 ee be be 71 0f 86 3e
       -0.49484646 0.19333732 -0.37291017 0.26183656
0002c0 70 1c a9 be ef 70 9e 3e 27 ef e1 be 27 cc 1d bf
       -0.3302951 0.30945536 -0.4412777 -0.61639637
0002d0 07 f0 08 3b f9 5a de be df 08 b5 3d 23 e8 c0 be
       0.002089502 -0.43428782 0.08839583 -0.37677106
0002e0 7d 42 f2 3c cb 4e a9 be 92 5d a0 be 6d ba 4c bf
       0.02957272 -0.33067927 -0.31321388 -0.79971963
0002f0 34 4b 07 be ce 77 d6 bd 03 a0 1e be 60 6d 84 3e
       -0.13212281 -0.1047207 -0.15490727 0.25864697
000300 79 94 bd bd bc 31 c4 3e 2e af 37 bd ec 4b 85 bf
       -0.092568345 0.38319194 -0.0448448 -1.0413795
000310 44 6d 83 bb 95 55 09 be 60 90 37 b8 8a 20 3e 3e
       -0.004010828 -0.13411553 -4.376506e-05 0.185671
000320 7e 2f c0 bc de de 24 3e 6c e0 15 3e 4e 32 9e bf
       -0.023460146 0.16100642 0.14636391 -1.2359102
000330 6f f0 7d 3e cc 99 8d be fb a5 96 3e c9 f7 24 3d
       0.2479875 -0.276564 0.29423508 0.04027537
000340 eb fd 97 3e ff f5 e7 3d 60 6a 21 bc 44 17 0e 3e
       0.29685912 0.11326217 -0.009852022 0.13876063
000350 10 43 82 3e 44 7d 06 bf ea f4 64 be 09 50 1c be
       0.2544179 -0.5253489 -0.22359052 -0.15264906
000360 54 04 e7 be fe 92 04 bd e8 60 9a be d5 29 4a 3c
       -0.4512049 -0.032366745 -0.3015206 0.012339075
000370 65 af 11 bf dd ad d9 bd d3 06 75 3f b9 93 fe ba
       -0.56908256 -0.10628865 0.9571354 -0.0019422687
000380 9f fd b8 3f dd 3d 56 3d 5d ad c4 3f 4b d4 aa 3d
       1.4452399 0.05230509 1.5365406 0.08341273
000390 16 a9 2d bf d8 d1 3e bd a0 91 79 3f 02 89 f8 3c
       -0.6783613 -0.04658684 0.9748783 0.030338768
0003a0 3a f2 a5 3f f7 a0 bc 3d ac 5f 90 3f 74 23 ff 3d
       1.2964547 0.09210389 1.1279197 0.12457934
0003b0 12 47 c7 be fb 3d 1b be 07 34 a0 bd 92 81 a5 bc
       -0.3892141 -0.15160362 -0.078224234 -0.020203386
0003c0 15 97 00 3f 8d 01 16 be af ba 86 3f d4 4e 7c bf
       0.5023053 -0.14649029 1.0525721 -0.9855778
0003d0 eb 34 eb bd b4 11 48 be 92 6c 16 be ff 77 41 bc
       -0.11484703 -0.19538003 -0.14689854 -0.011808394
0003e0 80 be b7 be c5 a8 66 bd 87 99 de be 28 d1 cf bd
       -0.35887527 -0.056313295 -0.43476507 -0.10147315
0003f0 30 38 df 3d 00 02 ce 3a a3 4e 77 bf 7c 51 97 3e
       0.10899389 0.0015717149 -0.96604365 0.29554355
